11941.pth (torch, 10342 bytes, 10 tensors)

SelfAttention._fc_q.weight f4 [4, 147]
0	0x3f78bb3f	0.97160715
1	0xbfdb50c5	-1.7134024
2	0xbf9a89f8	-1.2073355
3	0xbf037ae4	-0.5135939
4	0x3fae9dd0	1.364191
5	0xbf5c49ab	-0.8604991
6	0xbe6642bd	-0.22486396
7	0xbf3f0abf	-0.7462577
8	0x3da9d83a	0.08293195
9	0xbd225ed1	-0.039641205
10	0xbef2e4d6	-0.47440213
11	0xbf8b57f8	-1.0886221
12	0xbf2d4fc4	-0.6769984
13	0xbeab31c2	-0.334364
14	0x3dcf5506	0.10123639
15	0xbfebdc9d	-1.8426701
16	0x3f7c0c3f	0.98456186
17	0xbe8f245d	-0.2795743
18	0x3f3ca175	0.73683864
19	0xbe9fddd6	-0.31223935
20	0xbf835501	-1.0260316
21	0x3e877d75	0.26462904
22	0x3ed6474b	0.41851267
23	0x3fcc34b2	1.5953581
24	0xbf5f077a	-0.87120783
25	0xbebf36be	-0.37346452
26	0xbfbcc2ba	-1.4746926
27	0x3fde4a8f	1.7366503
28	0xc0197d2f	-2.3982656
29	0x3f561f95	0.8364194
30	0x3f6859e4	0.9076216
31	0xbe3f3cfb	-0.18675606
32	0xbf2707fe	-0.6524657
33	0x3fac9c9b	1.3485292
34	0xbf2fdd4d	-0.68697053
35	0xbf121944	-0.570698
36	0x3d971d1d	0.073786
37	0x3fbc72cf	1.4722537
38	0xbe3a5185	-0.1819516
39	0x3f297ac7	0.6620297
40	0x3e77a4c3	0.24183945
41	0x4000d3b3	2.012921
42	0xbe6eecbf	-0.23332499
43	0xc006b0a6	-2.1045318
44	0xbee54cd7	-0.44785187
45	0x3eafc6bd	0.34331313
46	0xbf64f22e	-0.89432037
47	0xbf25fc6a	-0.6483828
48	0xbf9634be	-1.1734846
49	0x3ee48837	0.44635174
50	0x3f50d59f	0.8157596
51	0x3f65c14a	0.8974806
52	0xbfa78f28	-1.3090563
53	0xbf7785cc	-0.9668853
54	0x401b82b9	2.4298537
55	0x3f179637	0.59213585
56	0xbe578916	-0.21048388
57	0xbedbed7e	-0.4295463
58	0xbf155597	-0.58333725
59	0xbf3c8c6e	-0.7365178
60	0x3e9dbd1f	0.3080835
61	0xbf2cc219	-0.6748367
62	0xbe6523c5	-0.22376926
63	0xbf953cd6	-1.1659191
64	0xbf70f292	-0.9412013
65	0x3e57b258	0.21064126
66	0xbfb0a3d2	-1.3799994
67	0xbf8a72f2	-1.0816329
68	0xbea6699d	-0.32502452
69	0xbe0c2648	-0.13686478
70	0xbf3a60c2	-0.7280389
71	0xbf4d035e	-0.8008326
72	0x3e29ac1b	0.1656956
73	0xc005e9f9	-2.0924056
74	0x3f273301	0.653122
75	0x3e8b41ca	0.2719863
76	0x3fa8df25	1.3193098
77	0xbf404079	-0.7509838
78	0xbc569754	-0.013097603
79	0xbd09b04c	-0.033615395
80	0x3edd7e86	0.43260592
81	0x3eba9ff4	0.3645016
82	0xbf1628f7	-0.5865626
83	0x3ed97874	0.4247471
84	0x3fd29fdd	1.6455036
85	0xc001444a	-2.019793
86	0x3e95de5b	0.29271206
87	0x3e0b0ae9	0.1357838
88	0x3fce1aeb	1.6101965
89	0x3ec9f0bd	0.3944148
90	0xbedb2e2f	-0.42808673
91	0x3f44b103	0.768326
92	0xbf835c7b	-1.0262598
93	0x3fc621b0	1.5479031
94	0x3ea49043	0.32141313
95	0x40034110	2.050846
96	0x3ecd0e78	0.400501
97	0x3dccbe05	0.09997181
98	0x3ed91248	0.4239676
99	0x3f931430	1.1490536
100	0x3f818c56	1.0120952
101	0x3e384894	0.17996436
102	0x3e21155e	0.15730807
103	0xbfaf5f16	-1.3700893
104	0x3f8d5d08	1.1044016
105	0xbed02e44	-0.40660298
106	0xbf0ccb37	-0.5499758
107	0x3fa2ed97	1.2728757
108	0xbfe26d2d	-1.7689568
109	0xbee5647c	-0.44803226
110	0xbeb25663	-0.34831533
111	0x3f0bef46	0.5466198
112	0xbff14a9f	-1.8850898
113	0xbf130bac	-0.57439685
114	0x3fa6c1a4	1.3027844
115	0xbf6e2302	-0.9302217
116	0xbf090e58	-0.5353751
117	0xbd974155	-0.07385508
118	0x3f039b29	0.5140863
119	0x3f8a1e50	1.0790501
120	0x3fe2030e	1.7657182
121	0x3d41be5c	0.04730068
122	0xbf3ad942	-0.7298776
123	0x3e22f01e	0.1591191
124	0x3fa7cf06	1.3110054
125	0xbeb00a75	-0.34382978
126	0x3ee236e7	0.44182512
127	0x3f049adb	0.5179879
128	0xbf2ee580	-0.6831894
129	0xbe0b668d	-0.13613339
130	0xbfbf6338	-1.4952154
131	0x3f1bf24e	0.609166
132	0x3cd1917b	0.025582066
133	0xbe036386	-0.12830934
134	0xbfdeec0d	-1.7415787
135	0xbf0867e7	-0.5328354
136	0x3e77ac32	0.24186781
137	0x3e98c9b2	0.2984138
138	0x3f6918f6	0.9105371
139	0x3ef70e8a	0.4825328
140	0x3e26a555	0.16274007
141	0x3f94efdb	1.1635698
142	0xbea8c791	-0.32964757
143	0x3f4aa359	0.791555
144	0xbfdb9d59	-1.7157394
145	0x3d41c1f8	0.047304124
146	0x3d2c4acb	0.042063516
147	0x3f02432e	0.5088376
148	0x3ef67e69	0.48143318
149	0xbfdb39cd	-1.7127014
150	0x3fb2d279	1.3970481
151	0xbf4f15de	-0.8089274
152	0x3f04237f	0.5161666
153	0x3f8bbfbd	1.0917889
154	0xc012b5b0	-2.2923393
155	0xbdb70052	-0.08935608
156	0xbec1e0b8	-0.3786676
157	0x3fc42c4a	1.5326016
158	0xbe273fe5	-0.16332968
159	0xbd319c30	-0.043361843
160	0xbf88bd5d	-1.0682789
161	0xbfa5b302	-1.2945254
162	0xbebae244	-0.36500752
163	0x3f07d6dc	0.53062224
164	0xbee746f8	-0.45171332
165	0xbeb1270c	-0.34600103
166	0x3edc700a	0.4305423
167	0xbf494421	-0.7861958
168	0xbf91b18f	-1.1382312
169	0x3f838c77	1.0277241
170	0xbfabcade	-1.3421285
171	0x3e99c4d8	0.30032992
172	0xbfa9104d	-1.32081
173	0x404310df	3.0479047
174	0x3efd2b1c	0.49446952
175	0x3fcd6991	1.6047841
176	0xbf954d1c	-1.1664157
177	0x3ebadb25	0.3649532
178	0xbf92f5cc	-1.1481261
179	0x3d9a21a6	0.07525949
180	0xbf43198d	-0.7621086
181	0xbf0c7f6b	-0.54881924
182	0x3f34411b	0.70411843
183	0x3e4e618e	0.20154402
184	0xbf9b867e	-1.2150419
185	0xbe22eaf3	-0.15909939
186	0x3e4d8679	0.20070828
187	0xbf83d1b0	-1.0298367
188	0xbed89dec	-0.42307985
189	0xbca7a8c0	-0.020466208
190	0xbf927c58	-1.1444197
191	0x3e198faa	0.1499621
192	0x3f46a014	0.7758801
193	0xbf2d9ec7	-0.678204
194	0xbf252188	-0.6450429
195	0x3f56c327	0.8389153
196	0x3f9d411f	1.2285498
197	0xbf8567ae	-1.0422266
198	0x3f4ba013	0.7954113
199	0xc02a6362	-2.6623158
200	0x3f9c880a	1.2229016
201	0x3f15ba21	0.58487135
202	0xbf876ce0	-1.0580101
203	0x3ed00a47	0.4063284
204	0x3f296e35	0.6618379
205	0xbf42a5cb	-0.7603423
206	0xc02f9ce4	-2.7439508
207	0xbff7ed11	-1.9369222
208	0x3f7179cd	0.9432648
209	0xbd4a4ec7	-0.049391534
210	0xbf74b792	-0.95592606
211	0x3f7023aa	0.9380442
212	0xbfbe5ccd	-1.487207
213	0xbfe9212d	-1.821325
214	0x3fe26017	1.7685574
215	0x3dc94cd9	0.09829111
216	0x3f500797	0.8126158
217	0xbf3f581a	-0.7474381
218	0xc021914d	-2.5244935
219	0xbedfd3d8	-0.4371631
220	0x3f9051bc	1.1274943
221	0xbee0ebaa	-0.43929797
222	0xbd577298	-0.05259952
223	0xbfacd639	-1.3502876
224	0xc0332ed8	-2.799734
225	0x3db3295d	0.08748124
226	0x3efdbaeb	0.4955667
227	0xbfa93699	-1.3219787
228	0xbf39b2f9	-0.72538716
229	0x3edd92e9	0.43276146
230	0xbdec3b3a	-0.11534734
231	0x3e2d11a0	0.16901255
232	0x3e59dc23	0.21275382
233	0xbfc3a266	-1.5283935
234	0x3f8bc4d3	1.0919441
235	0x3f5980c7	0.84962124
236	0xbe2c150a	-0.16804901
237	0xbf0951ff	-0.5364074
238	0xbf107840	-0.56433487
239	0x3f5ef884	0.87097955
240	0xbf4bbd07	-0.7958531
241	0xbee24694	-0.44194472
242	0x3eaec8b4	0.341375
243	0xbf09f0ae	-0.53882873
244	0x3f6485bd	0.8926657
245	0xbd1c136a	-0.038104452
246	0x3f18a726	0.5963005
247	0x3f2dc703	0.6788179
248	0xc0291345	-2.641801
249	0x3e766369	0.2406136
250	0xbfaeed24	-1.366612
251	0xc017f48f	-2.3743017
252	0xbf26c755	-0.65147907
253	0x3e5fc4d1	0.21852423
254	0x3fe3d405	1.7799078
255	0x3ed2723b	0.41102776

SelfAttention._fc_q.bias f4 [4]
0	0x3fd544e1	1.6661645
1	0x3d48eb49	0.04905251
2	0x3fba4525	1.4552351
3	0xbb302e25	-0.0026882973

SelfAttention._fc_k.weight f4 [4, 147]
0	0xbfc2a488	-1.5206461
1	0x3ee1c111	0.4409261
2	0xbf16a0f5	-0.5883935
3	0xbf47367d	-0.7781752
4	0x3e101fe0	0.1407466
5	0xbea2382d	-0.31683484
6	0xbf17e752	-0.5933734
7	0x3f9ef5f3	1.2418808
8	0xbe9e3f22	-0.30907542
9	0xbface1e2	-1.3506434
10	0x3e4104e9	0.1884953
11	0xbf5d2e24	-0.8639853
12	0x3fa7a2e5	1.3096586
13	0x3e8f18c5	0.27948585
14	0x3f0af991	0.5428706
15	0xbe579760	-0.21053839
16	0xbe80ad0d	-0.25132027
17	0xbfa5480a	-1.291261
18	0xbfeefcab	-1.8670858
19	0x3f38941e	0.7210101
20	0x3fa91fa0	1.3212776
21	0x3f0ded00	0.5543976
22	0xbf6f6a5b	-0.9352166
23	0x3b9f188a	0.00485522
24	0x3ece4526	0.4028713
25	0xbfcf104d	-1.617685
26	0xbefc5ed0	-0.49291086
27	0xbdc87c8b	-0.0978938
28	0xbef43802	-0.4769898
29	0x3f29b40f	0.6629037
30	0xbfeb1b20	-1.8367653
31	0x3e80051b	0.25003895
32	0x3e40aab1	0.18815114
33	0x3f5b7476	0.8572458
34	0xbf78e19e	-0.97219265
35	0xbeb152b0	-0.34633398
36	0xbf5eb7f1	-0.8699942
37	0xbeed5099	-0.46350554
38	0xbf9d0fc3	-1.2270435
39	0xbf65dae8	-0.8978715
40	0xbb88ea8d	-0.0041783513
41	0x3d7715df	0.060323592
42	0xbf4e664a	-0.8062483
43	0xbdbd0bb1	-0.092307456
44	0x3f0cf2f7	0.55058235
45	0xbf9b73e2	-1.214474
46	0x3ec43cbe	0.38327593
47	0xbeb442b1	-0.35207132
48	0x3f616301	0.8804169
49	0x3f1443ab	0.57915753
50	0xbe11b16b	-0.14227836
51	0xbd4560de	-0.048188083
52	0x3f5d8306	0.8652805
53	0x3e966df1	0.29380754
54	0xbfa3ab54	-1.278666
55	0x3e2fe979	0.17178907
56	0x3dd05aea	0.101735905
57	0x3f6096b0	0.8772993
58	0xbe03150e	-0.12801
59	0x3f7b114b	0.9807326
60	0xbf2e9f01	-0.6821137
61	0xbe18a9cb	-0.14908521
62	0x3f2c6cf5	0.67353755
63	0xbf5c918f	-0.86159605
64	0x3eb53579	0.3539236
65	0xbe097469	-0.13423313
66	0x3e5a19da	0.21298924
67	0xbf6ee088	-0.9331136
68	0x4024b526	2.5735564
69	0x3f054770	0.5206213
70	0xbeaefc42	-0.34176832
71	0xbf81b282	-1.0132601
72	0x3ed57c78	0.41696525
73	0x3f5da24f	0.8657579
74	0xbe1d32f7	-0.15351473
75	0x3fd63a09	1.6736461
76	0x3ec13789	0.37737682
77	0xbf82bbfc	-1.0213618
78	0x3f89f370	1.0777416
79	0x3ec22a14	0.37922728
80	0x3eb8bbb4	0.36080706
81	0xbf3a87e4	-0.728636
82	0xbf8a19fe	-1.0789182
83	0xbfaac0ec	-1.3340125
84	0x3b6d4295	0.0036203016
85	0x3f906d05	1.128327
86	0xbfca8727	-1.5822495
87	0x3f83e88d	1.0305344
88	0xbf940f51	-1.1567174
89	0xbfa11453	-1.2584327
90	0xc02b81bd	-2.6797936
91	0x3ea1a9ac	0.31574762
92	0xc00c4767	-2.191858
93	0x3e960edd	0.29308215
94	0xbec73ecc	-0.38915098
95	0x3f13e02e	0.57763946
96	0x3f0d3e74	0.5517342
97	0x3f4f7339	0.8103519
98	0x3e58fbb0	0.21189761
99	0x3ddf3f0f	0.10900699
100	0xbf20ea0b	-0.6285712
101	0xbd8d6d21	-0.0690558
102	0x3f0ac95d	0.54213506
103	0xbf514385	-0.8174365
104	0x3ecd27b3	0.4006935
105	0xbff953c1	-1.9478685
106	0x3fa2c162	1.2715266
107	0xbfb5ebe4	-1.4212613
108	0x3f445036	0.7668489
109	0xbed855b7	-0.42252895
110	0xc004398b	-2.0660121
111	0x3f4e0353	0.8047382
112	0xbe4fcb0d	-0.20292301
113	0x3edb15c3	0.4279004
114	0x3f48c97b	0.78432435
115	0x3ec9f166	0.39441985
116	0x3ee7a682	0.45244223
117	0xbdc3f0f8	-0.095674455
118	0xc0012b2c	-2.01826
119	0xbedc0ee6	-0.42980117
120	0x3f9e3009	1.2358409
121	0x3fb590e5	1.4184843
122	0xbf60457f	-0.8760604
123	0xbfbf68bf	-1.4953841
124	0xbfa59929	-1.2937366
125	0x3f8a87c3	1.0822681
126	0xbfcff687	-1.6247109
127	0xbec4ba4e	-0.3842339
128	0xbf434235	-0.762729
129	0xbedabf67	-0.42724153
130	0x3de111d6	0.1098973
131	0x3c24e41b	0.01006415
132	0xbe4513e2	-0.19245866
133	0xbe011ca4	-0.12608582
134	0x3eb75c58	0.3581264
135	0x3ee42e55	0.445666
136	0xbeb76b0e	-0.35823864
137	0x3f94d420	1.1627235
138	0xbf7c1c9e	-0.98481166
139	0xbcb86e23	-0.022513455
140	0xbfeb8f47	-1.84031
141	0xbfaf3c03	-1.3690189
142	0x3f247801	0.6424561
143	0x3f6acbfb	0.917175
144	0x3f8aace1	1.0834008
145	0x3ecacb46	0.3960821
146	0x3ec6a37d	0.38796607
147	0xbf08c16d	-0.53420144
148	0x3f14fb8d	0.58196336
149	0x3f08219d	0.5317629
150	0x3f2a9f1b	0.66649026
151	0x400b1826	2.173349
152	0xbee1762a	-0.44035465
153	0xbf65cd58	-0.89766455
154	0x3d17308f	0.036911543
155	0xbeb5f303	-0.35536966
156	0x3fc0a84c	1.505136
157	0x3f88e228	1.0694017
158	0xbed94897	-0.42438194
159	0xbd8950c6	-0.067048594
160	0x3ea2d380	0.31801987
161	0xbe670416	-0.22560152
162	0xbdce3bf8	-0.10070032
163	0x40097479	2.147734
164	0xbf464996	-0.77456033
165	0x3e8fce97	0.28087303
166	0xbf2f89b0	-0.6856947
167	0x3e6e8414	0.23292571
168	0xbea7b467	-0.32754824
169	0xbf1642eb	-0.5869586
170	0x3feab471	1.8336316
171	0x3f7d5cb2	0.98969567
172	0x3f1c09d7	0.60952514
173	0xbf839d20	-1.0282326
174	0xbf1a1ee1	-0.6020337
175	0xbe58164e	-0.21102259
176	0x3fa10287	1.2578896
177	0xbefa83d6	-0.48928708
178	0x3f11a785	0.5689624
179	0x3faf1cb2	1.3680632
180	0xbe1b263b	-0.15151303
181	0xbf93d679	-1.1549827
182	0x3ecc5e5e	0.39915746
183	0x3f5fd0e8	0.8742814
184	0xbf0c1701	-0.547226
185	0x3fc10fb7	1.5082921
186	0x3c35cf1b	0.011096741
187	0xbe395be0	-0.18101454
188	0x3e8d5962	0.27607256
189	0x3da41d7a	0.08013435
190	0x3fc66ac2	1.550133
191	0xbfb29001	-1.3950197
192	0xbf895701	-1.0729676
193	0xbfd94376	-1.6973712
194	0xbd9fe83e	-0.078079686
195	0x3f2b427b	0.66898316
196	0x40144244	2.3165445
197	0x3d777905	0.060418148
198	0xbe8ce4b8	-0.2751825
199	0x3d3bc8b6	0.04584571
200	0xbf97fd6c	-1.1874213
201	0xbea39b42	-0.3195439
202	0x3e391e79	0.1807803
203	0xbf7fb6aa	-0.998881
204	0xbf436a7b	-0.7633435
205	0xbf9bf52e	-1.2184198
206	0xbf2aa853	-0.6666309
207	0xbddc6e67	-0.10763245
208	0xbf299651	-0.6624499
209	0xbf2dcede	-0.6789378
210	0xbf27efa8	-0.6560006
211	0x3fcc9d89	1.5985576
212	0xbf0017b8	-0.5003619
213	0xbeac7d5e	-0.33689398
214	0xbf91d460	-1.1392937
215	0x3f9a6db1	1.2064725
216	0x3f6c5714	0.9232037
217	0xbfba0e6a	-1.4535649
218	0x3f679ee6	0.90476835
219	0x3fb0b94a	1.3806546
220	0x3dfc4741	0.12318278
221	0xbf01c5d9	-0.50692517
222	0xc031f1e8	-2.7803898
223	0x3fc62add	1.5481831
224	0x3de01ea7	0.109433465
225	0x3f6e510e	0.9309243
226	0x40047cb6	2.0701118
227	0xbc7672a0	-0.015041977
228	0xbf551b4f	-0.83244795
229	0x3cd3bd3a	0.025847066
230	0xbefca87a	-0.49347287
231	0xbe92461a	-0.28569108
232	0xbfef9ded	-1.872007
233	0xbe943a1f	-0.28950593
234	0x3f6a7e04	0.91598535
235	0xc01825fc	-2.3773184
236	0x3f252884	0.64514947
237	0x3fa15320	1.2603493
238	0xbf8cc221	-1.0996743
239	0xbf080efd	-0.5314787
240	0xbff712d1	-1.9302617
241	0x3caf8a20	0.021428168
242	0x40007b4f	2.0075262
243	0x3e918057	0.28418228
244	0xc005823a	-2.0860734
245	0x3ec789d6	0.38972348
246	0xbd9b15b8	-0.07572502
247	0xbf5569c6	-0.8336452
248	0xbe861631	-0.26188806
249	0x3f1f9c7d	0.6234816
250	0xbf855f52	-1.0419714
251	0x3eaff0dc	0.3436345
252	0xbf45638c	-0.7710502
253	0xbef0c70f	-0.4702687
254	0x3f998c5a	1.1995957
255	0xbe2f453f	-0.17116259

SelfAttention._fc_k.bias f4 [4]
0	0xbf3e5ba7	-0.743586
1	0xbeec4199	-0.46143797
2	0xbfb329d7	-1.3997144
3	0xbe13d4a0	-0.14436579

LSTMModel.lstm.weight_ih_l0 f4 [32, 12]
0	0xbebb257a	-0.3655203
1	0xbf994ba3	-1.1976207
2	0x3f8a1ff8	1.0791006
3	0xbf5d6a63	-0.8649046
4	0xbfafd2f3	-1.3736252
5	0x3e93ca62	0.28865343
6	0xbfdf83a3	-1.7462047
7	0xbf2af8dd	-0.66785985
8	0xbfc53ba5	-1.5408827
9	0xbdc2c592	-0.0951034
10	0x3f30343b	0.688297
11	0x3bce81d7	0.006302099
12	0xbe8c7ea9	-0.27440384
13	0xbfcc89fc	-1.597961
14	0x3f0d924f	0.55301374
15	0xbd0e89b1	-0.03479928
16	0x3c8ff0e5	0.017570922
17	0x3f8bbba7	1.0916642
18	0xbd8dd44a	-0.069252566
19	0xbf92cf2d	-1.1469475
20	0xbeefd6c5	-0.46843544
21	0xbf7bbdfe	-0.9833678
22	0xbfc9bedd	-1.5761372
23	0x3f030ac9	0.5118833
24	0x3ec695dc	0.3878621
25	0x3f11607a	0.56787837
26	0x3f68f4dc	0.90998626
27	0x3fbe2af4	1.4856858
28	0xbec080a5	-0.37598148
29	0xbef7f994	-0.484326
30	0xbdd09497	-0.10184591
31	0x3f60590c	0.87635875
32	0xbf3190ce	-0.6936158
33	0xbfcdbb18	-1.6072721
34	0xbefc3852	-0.4926172
35	0x3f8eccbf	1.1156234
36	0xbf5bcb69	-0.85857254
37	0x3f8abfc6	1.0839775
38	0xbe29ae05	-0.1657029
39	0xbd9118d8	-0.07084817
40	0xbf2551e3	-0.64578074
41	0xbe62fc86	-0.22166643
42	0x3e688f4b	0.22710912
43	0xbfa3b587	-1.2789773
44	0x3f3d3145	0.73903304
45	0xbf9f37bf	-1.2438887
46	0xbf14cfba	-0.58129466
47	0xbf006df4	-0.50167775
48	0x3f66ec0a	0.9020392
49	0xbf3217d4	-0.6956761
50	0xbd6e0fe7	-0.058120634
51	0xbfdd6d70	-1.7299023
52	0x3ea3047e	0.31839365
53	0x3f9e5932	1.237097
54	0xbf215947	-0.6302685
55	0x3eeb29fa	0.45930463
56	0xbfb9f735	-1.4528567
57	0xbe86d426	-0.2633373
58	0xbfd0c238	-1.6309271
59	0x3fd99f78	1.7001791
60	0xbf9592fe	-1.1685483
61	0xbfd3bf54	-1.6542764
62	0xbdf340a4	-0.118775636
63	0xbfaeb3b1	-1.3648587
64	0xc00c2e1e	-2.1903148
65	0xbf5b9a16	-0.8578199
66	0x3feb3b12	1.8377402
67	0xbefba0f0	-0.49146223
68	0xbfd4ea6b	-1.6634039
69	0x3ed5f784	0.41790402
70	0x3ece6c45	0.40316978
71	0xbea4eb4c	-0.32210767
72	0xbf494afb	-0.78630036
73	0xbe7f0c9a	-0.24907151
74	0xbea84f71	-0.3287311
75	0x3fad7a1f	1.3552893
76	0xbe0b3375	-0.13593848
77	0xbf938f94	-1.1528192
78	0x3f3471e0	0.7048626
79	0xbe41e315	-0.18934281
80	0x3ca603af	0.020265428
81	0xbe2aebcf	-0.16691516
82	0x3f81a251	1.012766
83	0x3fb86fff	1.4409178
84	0xbf53e6a8	-0.8277383
85	0x3e523c7f	0.2053089
86	0xbfa777d8	-1.3083448
87	0x3ee6ed72	0.4510303
88	0xbfa71fa4	-1.3056531
89	0xbe84f862	-0.2597075
90	0xbead985f	-0.33905312
91	0x3f05bec3	0.52244204
92	0x3ec5ef50	0.38659143
93	0xbf530690	-0.8243189
94	0x3e93f0e5	0.28894725
95	0x3f91f699	1.1403381
96	0xbf2a3f2c	-0.6650264
97	0xbfdcfdf8	-1.7265005
98	0xbfca88f3	-1.5823044
99	0x3e1a347e	0.15059087
100	0xbfa8bacf	-1.318201
101	0x3ef5ff9d	0.4804658
102	0x3fd48846	1.6604087
103	0xbf921872	-1.141371
104	0xbf1f2d89	-0.62178856
105	0xbf694f4b	-0.91136616
106	0xbcd38f63	-0.025825208
107	0xbeb3f336	-0.35146493
108	0x3fc28fe8	1.5200167
109	0xbe7117a2	-0.23544171
110	0xbfb5df99	-1.4208862
111	0xbf8221a6	-1.0166519
112	0x3ec388cf	0.38190314
113	0x3fa76132	1.3076537
114	0x3fb8f19f	1.4448737
115	0xbf889791	-1.0671254
116	0xbfaebb21	-1.3650857
117	0xbe6844cd	-0.22682495
118	0xbf969ac0	-1.1765976
119	0x3eb7731a	0.35830003
120	0xbebb48b6	-0.36578912
121	0xbf0eeb65	-0.55827934
122	0x3f3d623c	0.7397802
123	0xbf265a64	-0.64981675
124	0xbed41586	-0.4142267
125	0xbfd7029e	-1.6797674
126	0xbdfee762	-0.124464765
127	0x400513bb	2.0793293
128	0x3f61c41d	0.8818987
129	0xbf7f11bd	-0.9963644
130	0x3e8df9d4	0.27729666
131	0x40043dd1	2.066273
132	0xbece9374	-0.40346873
133	0xbf1affdf	-0.6054668
134	0xbfef2ae1	-1.8684961
135	0xbf580c21	-0.8439351
136	0xbf4c067e	-0.79697406
137	0xbeeecbd0	-0.46639872
138	0x3f2f4a00	0.6847229
139	0xbecedffe	-0.40405267
140	0xbf5c63c0	-0.86089706
141	0x3f597aac	0.8495281
142	0x3e7afb5c	0.24509948
143	0xbe8b25fe	-0.27177423
144	0x3f3d9b18	0.7406478
145	0x3fe5fe83	1.7968296
146	0xbf67e3aa	-0.9058176
147	0x3f0a59b5	0.5404313
148	0x3f88bf87	1.068345
149	0x3ef7b706	0.48381823
150	0x3e1b424d	0.1516201
151	0x3f6c2891	0.922494
152	0xbd975dac	-0.07390913
153	0xbfceb69d	-1.6149479
154	0x3e8b8bc7	0.2725508
155	0x3fa342ef	1.2754802
156	0xbfe10fde	-1.7582967
157	0x3fb5c46b	1.4200567
158	0xbd8dbc39	-0.06920666
159	0x3f29ef1d	0.6638048
160	0x3f3aa10a	0.72901976
161	0x3d82353f	0.06357812
162	0x3f267192	0.65017045
163	0x3fb9d690	1.4518604
164	0xbf6898d1	-0.9085818
165	0x3f6e8e40	0.93185806
166	0xbdd621fa	-0.10455699
167	0xbf9bb568	-1.2164736
168	0xbe4b688c	-0.198641
169	0xbce8fda1	-0.028441252
170	0x3e99ef22	0.30065256
171	0x3ebb638c	0.36599386
172	0x3f8dcfc8	1.1079035
173	0x3f9a3549	1.2047511
174	0xbec4483d	-0.38336363
175	0xbe19b4f5	-0.15010436
176	0xbebf4103	-0.37354288
177	0xbe1e4933	-0.15457611
178	0xbf59182f	-0.84802526
179	0xbefa1e76	-0.48851365
180	0xbf3033a7	-0.68828815
181	0xbe905b3e	-0.28194612
182	0x403e6356	2.974813
183	0x3d086ea7	0.03330865
184	0x3f11117f	0.5666732
185	0x3d2eef02	0.042708404
186	0xbfe802f4	-1.8125901
187	0xbf908171	-1.1289502
188	0x3f7aa0e3	0.97901744
189	0xbe8238fb	-0.25434098
190	0x3dbe3c65	0.09288863
191	0x403548d2	2.8325696
192	0xbf08724b	-0.532994
193	0xbfd53094	-1.665545
194	0x3fcaa1ee	1.5830667
195	0x3fa213ab	1.2662252
196	0x3e10b1ce	0.14130327
197	0x3fcc9197	1.598193
198	0xbe4b1057	-0.19830452
199	0x3fb067ea	1.3781712
200	0x3cf7cf8e	0.030250337
201	0x3e78b6d2	0.2428849
202	0xbeadcda6	-0.3394596
203	0xbea3adf9	-0.31968668
204	0x3f5ee5a8	0.8706918
205	0x3f96dba7	1.1785783
206	0x3f22efb4	0.6364701
207	0x4013deb5	2.310468
208	0x3dca8eae	0.09890495
209	0x3f22c65a	0.6358391
210	0x3e1014a1	0.1407037
211	0x3f0456ad	0.51694757
212	0x3f3ed403	0.74542254
213	0xbf863440	-1.0484695
214	0x3f4a037a	0.78911555
215	0x3dbdd288	0.09268671
216	0xbfe228ba	-1.7668679
217	0x3facce66	1.3500488
218	0x3f0423ae	0.5161694
219	0x402a8013	2.664067
220	0xbee2d7aa	-0.44305164
221	0x3f8f68d5	1.1203867
222	0xbf681d53	-0.90669745
223	0x3ec3f163	0.382701
224	0xbf8749d5	-1.0569407
225	0x3f268d14	0.6505902
226	0x3f77b48a	0.96759856
227	0x3f74ca1e	0.95620906
228	0x3ff8565e	1.9401357
229	0xbf7f3891	-0.9969569
230	0x3fc3766d	1.5270516
231	0x3f14aac1	0.5807305
232	0xbfdb13c8	-1.7115412
233	0x3f81020c	1.007875
234	0xbfa02c2d	-1.2513481
235	0xbd061356	-0.032733284
236	0x3f831a34	1.0242372
237	0xc023d3e1	-2.559807
238	0x3f7c513f	0.9856147
239	0x3ea78120	0.32715702
240	0xbf6ab9da	-0.91689837
241	0x3f48616e	0.78273666
242	0x3f394470	0.7237005
243	0xbdab5e0a	-0.08367546
244	0x3f6a2e7a	0.9147717
245	0xbf49c781	-0.78820044
246	0xbf77689f	-0.96644014
247	0xbfa52557	-1.290202
248	0x3f0dbf9a	0.55370486
249	0x3fa24a1b	1.2678865
250	0xbd1cac6f	-0.038250383
251	0xbda1acbb	-0.07894274
252	0xbfc74254	-1.5567117
253	0x3e94ff87	0.29101202
254	0xbfe25b9f	-1.768421
255	0x3eb4d5de	0.35319418

LSTMModel.lstm.weight_hh_l0 f4 [32, 8]
0	0x3ea45889	0.32098797
1	0x3e957e4e	0.29197925
2	0xbecf5222	-0.4049235
3	0x3d83acf7	0.06429475
4	0x3ea7aacc	0.32747495
5	0x3eeee811	0.46661428
6	0xbfc547b3	-1.5412506
7	0x3f9729e1	1.1809655
8	0x3fd6f8c9	1.6794673
9	0xbff97c4d	-1.9491059
10	0xbe552a0e	-0.20816824
11	0x3eb8e616	0.36113042
12	0x3e73a84e	0.23794672
13	0x3fb1492d	1.3850456
14	0x3f85bf22	1.0448954
15	0x3f3d5a4b	0.739659
16	0xbdd02443	-0.101631664
17	0x3f5a9a69	0.8539186
18	0xbf20b4b7	-0.6277575
19	0x3f3eda22	0.74551594
20	0xbf9378e3	-1.1521267
21	0xbf95a4a2	-1.1690867
22	0x3fa9eb0e	1.3274858
23	0x3fd9dcd4	1.7020516
24	0x3e63040d	0.22169514
25	0xbf648d3a	-0.89277995
26	0xbeb9016b	-0.36133894
27	0x3f135d8d	0.5756462
28	0xbe054042	-0.13012794
29	0x3f8c0713	1.0939659
30	0x4004c43c	2.0744772
31	0xbffb9a84	-1.965653
32	0x3eb30daf	0.34971377
33	0xbf6d77dd	-0.9276102
34	0xbdad3b7c	-0.08458611
35	0xbf9e175f	-1.2350882
36	0x3d889df9	0.06670756
37	0xbffb7013	-1.9643577
38	0x3fad648a	1.3546307
39	0x3e62bd61	0.22142555
40	0x3fd2257b	1.6417688
41	0x3f7ce6fa	0.9878994
42	0x3f545641	0.82944113
43	0xbedcf48b	-0.4315532
44	0x3f5eb143	0.8698923
45	0xbcf77004	-0.03020478
46	0xbf1da4c6	-0.6157955
47	0xbee49d58	-0.44651294
48	0xbf9e48cf	-1.236597
49	0xc00027b0	-2.0024223
50	0x3e67222d	0.22571631
51	0xbe271a3a	-0.16318598
52	0x3e94bb7a	0.29049283
53	0xbfe43e5c	-1.783153
54	0xbe880d30	-0.2657256
55	0xbf7f0dbb	-0.99630326
56	0x3ea65028	0.3248303
57	0xbfbbcfb2	-1.4672759
58	0x3ef932f4	0.48671687
59	0xbf1ace13	-0.60470694
60	0x3e743b5e	0.23850772
61	0xbfb9ecef	-1.4525431
62	0x3f874bbc	1.0569987
63	0x3f013c97	0.5048308
64	0x3fb45e93	1.4091362
65	0x3e6cb3a0	0.23115396
66	0x3f8b80a0	1.0898628
67	0x3f91f97e	1.1404264
68	0xbf4baba5	-0.79558784
69	0xbf1fc160	-0.6240444
70	0x3f802848	1.0012293
71	0x3f658362	0.896536
72	0x3f2ea426	0.6821922
73	0xbf5f9aaf	-0.87345403
74	0x3f3b2eeb	0.73118466
75	0x3eaff7bd	0.34368697
76	0xbf33e78b	-0.7027518
77	0xbf69828d	-0.9121483
78	0xbf6e445f	-0.93073076
79	0xc056d604	-3.3568125
80	0x3f28e143	0.6596872
81	0xbfa23498	-1.26723
82	0xbe82850a	-0.25492126
83	0xbf110b99	-0.5665832
84	0x3e36e9f1	0.17862679
85	0xbf7ad8ca	-0.97987044
86	0x3edcb23b	0.4310473
87	0xbf11317c	-0.5671613
88	0x40284226	2.6290374
89	0x3f665cfa	0.8998562
90	0x3f58541b	0.84503335
91	0x3fdb390f	1.7126788
92	0xbf5b11c5	-0.8557399
93	0xbefee8e8	-0.49787068
94	0x3c396ade	0.011316983
95	0x3ec3ed15	0.38266817
96	0x3f8f1616	1.1178615
97	0x3f9efda3	1.2421154
98	0x3c99ef3e	0.018790837
99	0x3ed46786	0.41485232
100	0x3fc5ba2c	1.544744
101	0xbec3a9c9	-0.38215473
102	0x3e81aae3	0.2532569
103	0x3fbdfb10	1.4842243
104	0x3e0a310a	0.1349527
105	0xbef6344c	-0.48086774
106	0x3f581a2d	0.8441494
107	0x3f07cf51	0.53050715
108	0x3e9d4d6a	0.30723125
109	0x3e801f8f	0.25024077
110	0x3f95cd6a	1.1703312
111	0xbe92cbf0	-0.28671217
112	0x3e1c21e0	0.15247297
113	0xbf9465f5	-1.1593615
114	0xbffbc7d9	-1.9670364
115	0x3eba9ba7	0.36446878
116	0xbdb78526	-0.08960943
117	0x3f19d85c	0.60095763
118	0x3f65736a	0.8962923
119	0x3f0812b0	0.53153515
120	0xbf9ec420	-1.2403603
121	0xbf1a5c39	-0.6029697
122	0x3f44a812	0.76818955
123	0xbe33a08c	-0.17541713
124	0xbf8c7d36	-1.0975711
125	0xbf0227c0	-0.50841904
126	0x3df90ab2	0.12160243
127	0x400740df	2.1133344
128	0x3ee13829	0.4398816
129	0x3eb95cfd	0.36203757
130	0x3e9b27e8	0.30303884
131	0x3f6f0fb4	0.93383336
132	0xbf70571b	-0.9388291
133	0xbede190b	-0.4337848
134	0x3f94b392	1.16173
135	0xbef34eba	-0.47521
136	0x3ffb14b2	1.9615691
137	0xbf439965	-0.76405936
138	0x3f298eec	0.66233706
139	0xbea036a2	-0.31291682
140	0xbf570f71	-0.84007937
141	0xbf0e0a89	-0.55484825
142	0x40028489	2.0393393
143	0xbe862259	-0.2619808
144	0xbe73ba2c	-0.23801488
145	0xbf7d361f	-0.9891071
146	0xbfb2636e	-1.3936594
147	0x3ee8b680	0.45451736
148	0xbd14e9cb	-0.036355775
149	0x3f0f13f1	0.55889803
150	0xbecdf1dd	-0.4022359
151	0xbf9f9b5d	-1.2469288
152	0xc049cfad	-3.1533005
153	0x3fc4fdf7	1.5390004
154	0xbf160bcf	-0.5861177
155	0x3eac38d8	0.33637118
156	0x3d30616e	0.043061666
157	0x3e4e92ef	0.20173238
158	0xbea04f55	-0.31310526
159	0xbfa32ff1	-1.2749006
160	0x3fabd016	1.3422878
161	0xbe8630e5	-0.2620918
162	0xbe9e4b56	-0.30916852
163	0xbfa7072d	-1.3049065
164	0x3fb81ca1	1.4383737
165	0xbf1a55cd	-0.6028717
166	0x3cba7d3a	0.02276479
167	0x3f4475fc	0.7674253
168	0x3f815286	1.0103309
169	0xbdb5d5b0	-0.08878648
170	0x3aa1b25e	0.0012336483
171	0xbe2a5e21	-0.1663747
172	0x3ed7a0fa	0.42115003
173	0xbf867f60	-1.0507622
174	0xbfaa574c	-1.3307891
175	0x3edf17d3	0.43572864
176	0xbf140c9c	-0.5783174
177	0x3f90b197	1.1304196
178	0x3fecadab	1.8490499
179	0x3d778837	0.06043264
180	0xbe57a8ed	-0.21060534
181	0xbea4fd8a	-0.32224685
182	0x3ef7237c	0.4826926
183	0xbf75b68a	-0.9598166
184	0xbe4a52d0	-0.19758153
185	0xbded0d27	-0.11574774
186	0xbdd21c82	-0.10259344
187	0xbdd85f2d	-0.10565028
188	0x3f8998d8	1.0749769
189	0xbfa31d05	-1.2743231
190	0x3d433f12	0.04766757
191	0x3fa76676	1.3078144
192	0x3fb80654	1.4376931
193	0x3fbede6a	1.4911625
194	0x3f5626d9	0.83653027
195	0xbf2bf7a8	-0.6717477
196	0xc0051fca	-2.0800653
197	0x3fce2d19	1.6107513
198	0xbf869162	-1.0513117
199	0xbf3c23dd	-0.73492223
200	0x3e9872fc	0.29775226
201	0xbdf68f27	-0.12039023
202	0xbf558291	-0.83402354
203	0x3e4c9bfc	0.19981378
204	0x3eff4065	0.49853817
205	0x3e0d1b6e	0.13779995
206	0xbd22e38e	-0.039767794
207	0x3fb11995	1.3835932
208	0x3e3be1f3	0.18347912
209	0x3f3ce12f	0.737811
210	0x3e84d799	0.25945738
211	0x3fafbca8	1.3729448
212	0x3e480af9	0.19535436
213	0xbfa72c8c	-1.306047
214	0xbfc5e843	-1.5461506
215	0x3f48fc33	0.78509825
216	0x3f6961a3	0.91164607
217	0x3e181e20	0.14855242
218	0x3c51a7b8	0.012796335
219	0x3f187f89	0.59569603
220	0xbf0d9aec	-0.5531452
221	0xbea5b26e	-0.32362694
222	0xbee2240f	-0.44168136
223	0xbe45e616	-0.19326052
224	0x3f819f29	1.0126697
225	0x3fe72a69	1.8059818
226	0x3fac10d4	1.3442636
227	0xbfc49e94	-1.5360894
228	0x3f081e42	0.5317117
229	0xbfd7e2cd	-1.6866089
230	0xbecf41ec	-0.40479982
231	0x3fc0345d	1.501598
232	0x3f79f372	0.97637093
233	0x3f3992da	0.724897
234	0xbefeb934	-0.49750674
235	0xbfae8aca	-1.3636105
236	0x3f22eb30	0.6364012
237	0x3f76934d	0.96318513
238	0x3fd586a0	1.6681709
239	0xbf1b5138	-0.60670805
240	0xbe7c9648	-0.24666703
241	0xbf3e0df7	-0.7424006
242	0xbf48ebdb	-0.78484887
243	0xbf2e7b96	-0.6815733
244	0x3f093d2f	0.53608984
245	0xbf60260b	-0.8755805
246	0xbfa9d0e9	-1.3266879
247	0xbdb9ebd8	-0.09078187
248	0xbf81074e	-1.0080354
249	0xbf431d3f	-0.762165
250	0xbeca93ba	-0.3956583
251	0xbfe3ece8	-1.7806673
252	0x3d96c1af	0.07361161
253	0x3ea83f3a	0.32860738
254	0x3e8e1f87	0.27758428
255	0x3f84ca0a	1.0374157

LSTMModel.lstm.bias_ih_l0 f4 [32]
0	0xbe1fcf6f	-0.15606473
1	0xbfa78c0c	-1.3089614
2	0x3f412598	0.7544799
3	0xbf72a6ec	-0.9478595
4	0xbdefa4b6	-0.11701338
5	0xbf6e4198	-0.9306884
6	0xbed896ab	-0.4230245
7	0xbd6bdb8c	-0.057582423
8	0x3e86d780	0.26336288
9	0xbedc3c75	-0.43014875
10	0x3fc00351	1.5001012
11	0x3f7837a9	0.9695993
12	0x3f0dafc7	0.5534634
13	0x3fcf2032	1.61817
14	0x3f61ffe1	0.88281065
15	0xc00dd862	-2.216332
16	0xbf7a36ab	-0.97739667
17	0x3f9aef29	1.2104236
18	0xbfc37aec	-1.5271888
19	0x3e18d07d	0.14923282
20	0x3f698a04	0.9122622
21	0xbeb29cf6	-0.34885377
22	0x3e1d4150	0.15356946
23	0x3ff4d990	1.9128895
24	0xbffdbc24	-1.9823041
25	0xbf3c1b97	-0.734796
26	0x3e117798	0.14205778
27	0x3dfdc4ed	0.12391076
28	0x3de692f2	0.11258496
29	0xbf0bf4c9	-0.5467039
30	0x3f35801a	0.7089859
31	0xbf3197bc	-0.69372153

LSTMModel.lstm.bias_hh_l0 f4 [32]
0	0x3f488d2e	0.78340423
1	0xbebe0c6e	-0.37118858
2	0x3dd73be6	0.105094716
3	0xbfb57618	-1.4176664
4	0x3e829be3	0.25509557
5	0xbe92a012	-0.2863775
6	0x3def9c24	0.11699703
7	0x3ef4357f	0.47697064
8	0xbfa80865	-1.3127562
9	0x3d047afa	0.032343842
10	0x3f6a7885	0.9159015
11	0xbe455a69	-0.1927277
12	0x3fe97475	1.8238665
13	0x3f47cd6d	0.7804783
14	0xbf943d15	-1.1581141
15	0x401363fe	2.302978
16	0xbe44938a	-0.19196907
17	0xbef9c618	-0.48783946
18	0xbea851e2	-0.32874972
19	0x3f085700	0.5325775
20	0xbfea88f1	-1.8323041
21	0xbf27602a	-0.6538111
22	0xbfd7bc80	-1.6854401
23	0xbf6f8d18	-0.93574667
24	0x3ed2b25c	0.41151702
25	0xbea1555f	-0.31510445
26	0x3f72ecf1	0.94892794
27	0x3ea87757	0.3290355
28	0xbe445c21	-0.1917577
29	0xbf02a180	-0.5102768
30	0x3f40a5f1	0.75253206
31	0xbe46275f	-0.19350956

LSTMModel.fc.weight f4 [3, 8]
0	0x3ea7bd69	0.32761696
1	0xbdb883ed	-0.09009538
2	0x3e2ee7ae	0.17080566
3	0xbfddf496	-1.7340267
4	0xbe5994c7	-0.2124816
5	0xbf82ea4e	-1.0227754
6	0x3e1e4f98	0.1546005
7	0xbd8cbcb0	-0.06871927
8	0xbfaee0c4	-1.3662343
9	0xbe78d26d	-0.24299021
10	0x3d762c61	0.060100917
11	0xbecba10c	-0.39771307
12	0xbf0d81a9	-0.5527597
13	0xbfcb7bdb	-1.5897173
14	0xbee60518	-0.4492576
15	0xbd8e1075	-0.06936733
16	0x3f87bdce	1.0604799
17	0x3f72645b	0.9468438
18	0xbd9c1499	-0.07621116
19	0xbf8a962f	-1.0827082
20	0xbf1cde66	-0.61276853
21	0x40080a71	2.1256373
22	0x3fe940f1	1.8222944
23	0x3f509c4e	0.814885

LSTMModel.fc.bias f4 [3]
0	0xbd8c2d59	-0.06844587
1	0xbeacc66a	-0.33745128
2	0xc007ada6	-2.1199737
